01_Iris_Dataset_Classification/checkpoint.pth (torch_old, 7952 bytes, 18 tensors)

weight f4 [15, 4]
-0.35452384 0.101310015 0.01699543 -0.1189881 0.17585255 0.6077147 -0.6538303 -0.36549538
-0.40853685 0.082351744 -0.32427585 0.46339816 -2.338861 -1.8897316 3.5047863 4.0623336
-0.19935791 -0.1587794 0.3858034 -0.46145314 -0.35561386 -0.4269875 1.0150446 0.7763432
1.8796742 0.99685824 -1.9414209 -2.021427 0.08394898 0.48360047 -0.512027 0.10700155
-0.2685335 -0.5913296 0.6219134 0.8984876 0.654154 1.4155339 -0.94178367 -1.4699798
-1.5240338 -1.3718158 2.348824 2.4623537 -0.32112402 -0.03674559 0.30003428 0.68913364
-0.37701297 0.19595242 -0.1421318 -0.19187462 -0.24493676 -0.35129046 -0.052818894 0.21945512
0.021541776 0.8408137 -0.56644505 -0.73928285
00000000: 2684 b5be a07b cf3d 003a 8b3c 08b0 f3bd
00000010: b112 343e 3193 1b3f 6c61 27bf 3622 bbbe
00000020: be2b d1be 08a8 a83d 7c07 a6be 8642 ed3e
00000030: e6af 15c0 bae2 f1bf 6b4e 6040 a3fe 8140
00000040: 7b24 4cbe 1197 22be 0688 c53e 9643 ecbe
00000050: 0513 b6be 1b9e dabe fbec 813f 6ebe 463f
00000060: 2a99 f03f 1a32 7f3f 7b80 f8bf 0f5f 01c0
00000070: 71ed ab3d 7b9a f73e 3414 03bf a123 db3d
00000080: 397d 89be 6061 17bf b735 1f3f 4903 663f
00000090: a376 273f 3730 b53f bc18 71bf 4c28 bcbf
000000a0: 8a13 c3bf a997 afbf 2253 1640 3497 1d40
000000b0: 5e6a a4be 8b82 16bd 189e 993e 106b 303f
000000c0: d807 c1be c0a7 483e 008b 11be c87a 44be
000000d0: b4d0 7abe 58dc b3be a058 58bd d8b8 603e
000000e0: 6178 b03c 913f 573f 8b02 11bf a441 3dbf

bias f4 [15]
0.28366166 0.12162739 -0.07751268 -1.7820697 0.37399116 -0.4035665 0.78545856 -0.01266393
-0.7495947 0.4552121 -1.0104247 -0.19771312 -0.25524038 -0.32194197 0.44911674
00000000: 1a3c 913e c817 f93d f8be 9ebd dc1a e4bf
00000010: c57b bf3e 45a0 cebe d013 493f 5f7c 4fbc
00000020: 70e5 3fbf 8f11 e93e 9955 81bf 4f75 4abe
00000030: deae 82be 94d5 a4be a1f2 e53e

weight f4 [10, 15]
0.061970502 0.027428875 0.1329152 -0.073745675 0.12929657 -0.04007608 -0.13093899 -0.006167507
-0.2863625 0.26694024 -0.30465615 -0.2632142 -0.24804398 -0.018488884 0.06637126 -0.080777094
0.1995531 -0.04649216 -0.04375456 -0.19210182 -0.09428746 0.07565123 -0.1841029 0.022047108
0.054677736 -0.13657773 -0.22873761 -0.0369792 -0.0072164834 -0.18857126 0.20654458 0.072154894
0.11989483 -0.19304918 0.06601934 -0.1297133 -0.045103934 0.16255029 -0.16925563 0.08887984
-0.032898664 -0.15378202 -0.008221015 0.13754952 -0.19331229 -0.21513167 0.050667048 0.16900146
-1.3281814 0.20569412 -0.38363358 0.60909456 -0.37255508 -0.3434883 0.44459963 -0.7666965
-0.11070364 0.22389755 -0.1360819 -0.09135988 0.14264658 -0.096627 0.024094522 -0.14606035
-0.068783715 0.14614417 -0.09568952 0.096063174 -0.06204457 -0.19137467 -0.101398855 -0.06629372
0.15376094 -0.14131345 -0.13492726 0.051739424 0.10914324 -0.22327158 0.20373754 0.16694748
-0.36889058 -1.0024155 -0.24847357 0.13304488 -0.66494095 0.2554292 0.062909745 0.086897016
0.11161411 0.13279112 0.014941245 0.7692861 0.12630889 -0.845716 0.10287743 -1.2449056
0.2504244 0.64568 -0.13931952 0.49588743 -0.9910997 0.11136654 -0.12024416 -0.053164676
0.89610785 -0.011006817 -0.10067157 0.24563113 -0.01578138 0.093262546 0.09935339 -0.12511674
0.14571162 0.22624321 0.07241931 -0.21273032 -0.068832695 -0.011458054 0.2385551 0.06667786
0.23868936 0.082417406 0.18029195 -0.04017876 -0.055854674 -0.34292892 0.19210654 0.16696778
-0.017102916 0.019839589 -0.29058722 0.0470808 0.25355646 -0.24765658 0.23854902 -0.093818024
-0.12773195 -0.0367945 0.94238186 0.09561122 0.31446916 -0.2846475 0.031025542 0.18358965
-0.14183569 0.56051105 0.12657312 0.14171752 -0.25785017 -0.21393558
00000000: c8d4 7d3d 85b2 e03c ec1a 083e f907 97bd
00000010: 5266 043e d126 24bd df14 06be cc18 cabb
00000020: 1b9e 92be 64ac 883e e4fb 9bbe 03c4 86be
00000030: 3eff 7dbe 0076 97bc a8ed 873d 766e a5bd
00000040: a657 4c3e 906e 3ebd fb37 33bd 57b6 44be
00000050: c919 c1bd 08ef 9a3d 7885 3cbe 239c b43c
00000060: c3f5 5f3d 08db 0bbe 313a 6abe 8077 17bd
00000070: 4078 ecbb d318 41be 6c80 533e f2c5 933d
00000080: 6c8b f53d afae 45be 2635 873d 90d3 04be
00000090: e7be 38bd 9573 263e 5951 2dbe a206 b63d
000000a0: c0c0 06bd 0979 1dbe 70b1 06bc c8d9 0c3e
000000b0: a8f3 45be 7a4b 5cbe 4088 4f3d b80e 2d3e
000000c0: d901 aabf 7ba1 523e 9f6b c4be 9fed 1b3f
000000d0: 8abf bebe b3dd afbe 90a2 e33e 3946 44bf
000000e0: 97b8 e2bd 6645 653e 0e59 0bbe e41a bbbd
000000f0: f211 123e 60e4 c5bd e061 c53c d890 15be
00000100: 7ade 8cbd d1a6 153e def8 c3bd c5bc c43d
00000110: 7222 7ebd b9f7 43be 34aa cfbd 00c5 87bd
00000120: 8273 1d3e 79b4 10be 5f2a 0abe b8ec 533d
00000130: 7e86 df3d 4ea1 64be 93a0 503e 48f4 2a3e
00000140: 3adf bcbe 274f 80bf db6f 7ebe eb3c 083e
00000150: 9239 2abf 9ec7 823e d3d6 803d 10f7 b13d
00000160: f095 e43d 65fa 073e 20cc 743c efef 443f
00000170: 1e57 013e d880 58bf 67b1 d23d 1159 9fbf
00000180: a137 803e 494b 253f c7a9 0ebe f5e4 fd3e
00000190: b6b8 7dbf 2414 e43d 9242 f6bd 34c3 59bd
000001a0: 5367 653f f055 34bc e52c cebd ba86 7b3e
000001b0: f447 81bc 6f00 bf3d ca79 cb3d 9a1e 00be
000001c0: 6d35 153e 4dac 673e 9350 943d fad5 59be
000001d0: 28f8 8cbd 90ba 3bbc ca47 743e 678e 883d
000001e0: fc6a 743e 75ca a83d 749e 383e 7c92 24bd
000001f0: dfc7 64bd 6194 afbe 94b7 443e 9af9 2a3e
00000200: 6a1b 8cbc a286 a23c d9c7 94be ccd7 403d
00000210: 27d2 813e b099 7dbe 3246 743e aa23 c0bd
00000220: 2acc 02be d4b5 16bd f03f 713f d1cf c33d
00000230: 1a02 a13e 51bd 91be 4729 fe3c edfe 3b3e
00000240: 603d 11be a77d 0f3f 629c 013e 661e 113e
00000250: f004 84be ee11 5bbe

bias f4 [10]
0.20530428 -0.2587814 -0.050843354 0.31057113 0.11251194 -0.45355505 -0.2926295 -0.061935265
-0.24853872 -0.61177206
00000000: 493b 523e ff7e 84be 1f41 50bd 2e03 9f3e
00000010: a96c e63d 5e38 e8be 89d3 95be d5af 7dbd
00000020: ef80 7ebe 189d 1cbf

weight f4 [3, 10]
-0.06678727 -0.11907299 -0.03347952 -0.38150132 0.13029464 0.066481486 1.8748895 0.10389414
0.38761288 -1.8324441 0.26475322 -0.26845893 0.17580616 1.3334786 -0.065809995 -0.52398884
-0.87056166 0.23382644 -0.28824338 0.2638034 -0.12482158 0.021242347 -0.29542536 -0.8883298
-0.10439933 0.6127206 -0.89129955 0.20450628 -0.21936643 1.1464893
00000000: c4c7 88bd 8adc f3bd d221 09bd 2454 c3be
00000010: f56b 053e 7227 883d 61fc ef3f 73c6 d43d
00000020: 3275 c63e 878d eabf bc8d 873e 7373 89be
00000030: 8806 343e 6daf aa3f 64c7 86bd 2224 06bf
00000040: 21dd 5ebf 3370 6f3e a394 93be 3d11 873e
00000050: 75a2 ffbd 6e04 ae3c fe41 97be 9569 63bf
00000060: 51cf d5bd 42db 1c3f 352c 64bf 186a 513e
00000070: 98a1 60be 29c0 923f

bias f4 [3]
-1.5547079 1.5206496 0.36147302
00000000: ab00 c7bf a5a4 c23f fe12 b93e

input.weight f4 [15, 4]
-0.35452384 0.101310015 0.01699543 -0.1189881 0.17585255 0.6077147 -0.6538303 -0.36549538
-0.40853685 0.082351744 -0.32427585 0.46339816 -2.338861 -1.8897316 3.5047863 4.0623336
-0.19935791 -0.1587794 0.3858034 -0.46145314 -0.35561386 -0.4269875 1.0150446 0.7763432
1.8796742 0.99685824 -1.9414209 -2.021427 0.08394898 0.48360047 -0.512027 0.10700155
-0.2685335 -0.5913296 0.6219134 0.8984876 0.654154 1.4155339 -0.94178367 -1.4699798
-1.5240338 -1.3718158 2.348824 2.4623537 -0.32112402 -0.03674559 0.30003428 0.68913364
-0.37701297 0.19595242 -0.1421318 -0.19187462 -0.24493676 -0.35129046 -0.052818894 0.21945512
0.021541776 0.8408137 -0.56644505 -0.73928285
00000000: 2684 b5be a07b cf3d 003a 8b3c 08b0 f3bd
00000010: b112 343e 3193 1b3f 6c61 27bf 3622 bbbe
00000020: be2b d1be 08a8 a83d 7c07 a6be 8642 ed3e
00000030: e6af 15c0 bae2 f1bf 6b4e 6040 a3fe 8140
00000040: 7b24 4cbe 1197 22be 0688 c53e 9643 ecbe
00000050: 0513 b6be 1b9e dabe fbec 813f 6ebe 463f
00000060: 2a99 f03f 1a32 7f3f 7b80 f8bf 0f5f 01c0
00000070: 71ed ab3d 7b9a f73e 3414 03bf a123 db3d
00000080: 397d 89be 6061 17bf b735 1f3f 4903 663f
00000090: a376 273f 3730 b53f bc18 71bf 4c28 bcbf
000000a0: 8a13 c3bf a997 afbf 2253 1640 3497 1d40
000000b0: 5e6a a4be 8b82 16bd 189e 993e 106b 303f
000000c0: d807 c1be c0a7 483e 008b 11be c87a 44be
000000d0: b4d0 7abe 58dc b3be a058 58bd d8b8 603e
000000e0: 6178 b03c 913f 573f 8b02 11bf a441 3dbf

input.bias f4 [15]
0.28366166 0.12162739 -0.07751268 -1.7820697 0.37399116 -0.4035665 0.78545856 -0.01266393
-0.7495947 0.4552121 -1.0104247 -0.19771312 -0.25524038 -0.32194197 0.44911674
00000000: 1a3c 913e c817 f93d f8be 9ebd dc1a e4bf
00000010: c57b bf3e 45a0 cebe d013 493f 5f7c 4fbc
00000020: 70e5 3fbf 8f11 e93e 9955 81bf 4f75 4abe
00000030: deae 82be 94d5 a4be a1f2 e53e

hl1.weight f4 [10, 15]
0.061970502 0.027428875 0.1329152 -0.073745675 0.12929657 -0.04007608 -0.13093899 -0.006167507
-0.2863625 0.26694024 -0.30465615 -0.2632142 -0.24804398 -0.018488884 0.06637126 -0.080777094
0.1995531 -0.04649216 -0.04375456 -0.19210182 -0.09428746 0.07565123 -0.1841029 0.022047108
0.054677736 -0.13657773 -0.22873761 -0.0369792 -0.0072164834 -0.18857126 0.20654458 0.072154894
0.11989483 -0.19304918 0.06601934 -0.1297133 -0.045103934 0.16255029 -0.16925563 0.08887984
-0.032898664 -0.15378202 -0.008221015 0.13754952 -0.19331229 -0.21513167 0.050667048 0.16900146
-1.3281814 0.20569412 -0.38363358 0.60909456 -0.37255508 -0.3434883 0.44459963 -0.7666965
-0.11070364 0.22389755 -0.1360819 -0.09135988 0.14264658 -0.096627 0.024094522 -0.14606035
-0.068783715 0.14614417 -0.09568952 0.096063174 -0.06204457 -0.19137467 -0.101398855 -0.06629372
0.15376094 -0.14131345 -0.13492726 0.051739424 0.10914324 -0.22327158 0.20373754 0.16694748
-0.36889058 -1.0024155 -0.24847357 0.13304488 -0.66494095 0.2554292 0.062909745 0.086897016
0.11161411 0.13279112 0.014941245 0.7692861 0.12630889 -0.845716 0.10287743 -1.2449056
0.2504244 0.64568 -0.13931952 0.49588743 -0.9910997 0.11136654 -0.12024416 -0.053164676
0.89610785 -0.011006817 -0.10067157 0.24563113 -0.01578138 0.093262546 0.09935339 -0.12511674
0.14571162 0.22624321 0.07241931 -0.21273032 -0.068832695 -0.011458054 0.2385551 0.06667786
0.23868936 0.082417406 0.18029195 -0.04017876 -0.055854674 -0.34292892 0.19210654 0.16696778
-0.017102916 0.019839589 -0.29058722 0.0470808 0.25355646 -0.24765658 0.23854902 -0.093818024
-0.12773195 -0.0367945 0.94238186 0.09561122 0.31446916 -0.2846475 0.031025542 0.18358965
-0.14183569 0.56051105 0.12657312 0.14171752 -0.25785017 -0.21393558
00000000: c8d4 7d3d 85b2 e03c ec1a 083e f907 97bd
00000010: 5266 043e d126 24bd df14 06be cc18 cabb
00000020: 1b9e 92be 64ac 883e e4fb 9bbe 03c4 86be
00000030: 3eff 7dbe 0076 97bc a8ed 873d 766e a5bd
00000040: a657 4c3e 906e 3ebd fb37 33bd 57b6 44be
00000050: c919 c1bd 08ef 9a3d 7885 3cbe 239c b43c
00000060: c3f5 5f3d 08db 0bbe 313a 6abe 8077 17bd
00000070: 4078 ecbb d318 41be 6c80 533e f2c5 933d
00000080: 6c8b f53d afae 45be 2635 873d 90d3 04be
00000090: e7be 38bd 9573 263e 5951 2dbe a206 b63d
000000a0: c0c0 06bd 0979 1dbe 70b1 06bc c8d9 0c3e
000000b0: a8f3 45be 7a4b 5cbe 4088 4f3d b80e 2d3e
000000c0: d901 aabf 7ba1 523e 9f6b c4be 9fed 1b3f
000000d0: 8abf bebe b3dd afbe 90a2 e33e 3946 44bf
000000e0: 97b8 e2bd 6645 653e 0e59 0bbe e41a bbbd
000000f0: f211 123e 60e4 c5bd e061 c53c d890 15be
00000100: 7ade 8cbd d1a6 153e def8 c3bd c5bc c43d
00000110: 7222 7ebd b9f7 43be 34aa cfbd 00c5 87bd
00000120: 8273 1d3e 79b4 10be 5f2a 0abe b8ec 533d
00000130: 7e86 df3d 4ea1 64be 93a0 503e 48f4 2a3e
00000140: 3adf bcbe 274f 80bf db6f 7ebe eb3c 083e
00000150: 9239 2abf 9ec7 823e d3d6 803d 10f7 b13d
00000160: f095 e43d 65fa 073e 20cc 743c efef 443f
00000170: 1e57 013e d880 58bf 67b1 d23d 1159 9fbf
00000180: a137 803e 494b 253f c7a9 0ebe f5e4 fd3e
00000190: b6b8 7dbf 2414 e43d 9242 f6bd 34c3 59bd
000001a0: 5367 653f f055 34bc e52c cebd ba86 7b3e
000001b0: f447 81bc 6f00 bf3d ca79 cb3d 9a1e 00be
000001c0: 6d35 153e 4dac 673e 9350 943d fad5 59be
000001d0: 28f8 8cbd 90ba 3bbc ca47 743e 678e 883d
000001e0: fc6a 743e 75ca a83d 749e 383e 7c92 24bd
000001f0: dfc7 64bd 6194 afbe 94b7 443e 9af9 2a3e
00000200: 6a1b 8cbc a286 a23c d9c7 94be ccd7 403d
00000210: 27d2 813e b099 7dbe 3246 743e aa23 c0bd
00000220: 2acc 02be d4b5 16bd f03f 713f d1cf c33d
00000230: 1a02 a13e 51bd 91be 4729 fe3c edfe 3b3e
00000240: 603d 11be a77d 0f3f 629c 013e 661e 113e
00000250: f004 84be ee11 5bbe

hl1.bias f4 [10]
0.20530428 -0.2587814 -0.050843354 0.31057113 0.11251194 -0.45355505 -0.2926295 -0.061935265
-0.24853872 -0.61177206
00000000: 493b 523e ff7e 84be 1f41 50bd 2e03 9f3e
00000010: a96c e63d 5e38 e8be 89d3 95be d5af 7dbd
00000020: ef80 7ebe 189d 1cbf

out.weight f4 [3, 10]
-0.06678727 -0.11907299 -0.03347952 -0.38150132 0.13029464 0.066481486 1.8748895 0.10389414
0.38761288 -1.8324441 0.26475322 -0.26845893 0.17580616 1.3334786 -0.065809995 -0.52398884
-0.87056166 0.23382644 -0.28824338 0.2638034 -0.12482158 0.021242347 -0.29542536 -0.8883298
-0.10439933 0.6127206 -0.89129955 0.20450628 -0.21936643 1.1464893
00000000: c4c7 88bd 8adc f3bd d221 09bd 2454 c3be
00000010: f56b 053e 7227 883d 61fc ef3f 73c6 d43d
00000020: 3275 c63e 878d eabf bc8d 873e 7373 89be
00000030: 8806 343e 6daf aa3f 64c7 86bd 2224 06bf
00000040: 21dd 5ebf 3370 6f3e a394 93be 3d11 873e
00000050: 75a2 ffbd 6e04 ae3c fe41 97be 9569 63bf
00000060: 51cf d5bd 42db 1c3f 352c 64bf 186a 513e
00000070: 98a1 60be 29c0 923f

out.bias f4 [3]
-1.5547079 1.5206496 0.36147302
00000000: ab00 c7bf a5a4 c23f fe12 b93e

momentum_buffer f4 [15, 4]
0.0 0.0 0.0 0.0 -9.2756505e-05 -0.00036217025 0.0006150293 0.00024132973
0.0 0.0 0.0 0.0 -1.1599152 -0.4991301 -0.9344501 -0.33338147
0.012480351 0.0058771074 0.009761049 0.0035808429 -0.3550712 -0.15206154 -0.28391346 -0.10076607
0.4280229 0.185803 0.34522364 0.12315472 -0.0001070715 -0.0004288559 0.0007329126 0.0002874114
-0.22856618 -0.09866148 -0.1841714 -0.065634675 0.21829711 0.09458763 0.1761111 0.06281412
-0.6952689 -0.29935405 -0.56000423 -0.19971503 -0.15574676 -0.06701532 -0.12549819 -0.04476146
0.0 0.0 0.0 0.0 0.0 0.0 0.0 0.0
-0.00012564889 -0.00047369508 0.0007966496 0.00031279566
00000000: 0000 0000 0000 0000 0000 0000 0000 0000
00000010: 4586 c2b8 abe1 bdb9 eb39 213a 750d 7d39
00000020: 0000 0000 0000 0000 0000 0000 0000 0000
00000030: 1a78 94bf fb8d ffbe 1f38 6fbf fab0 aabe
00000040: 637a 4c3c c094 c03b cfec 1f3c 93ac 6a3b
00000050: e4cb b5be 05b6 1bbe 1b5d 91be 715e cebd
00000060: d125 db3e 2443 3e3e 27c1 b03e 8b38 fc3d
00000070: 938b e0b8 11d8 e0b9 ef20 403a b5af 9639
00000080: 410d 6abe 080f cabd 6d97 3cbe 796b 86bd
00000090: 4789 5f3e 29b7 c13d 7856 343e b0a4 803d
000000a0: 25fd 31bf ef44 99be 705c 0fbf 1982 4cbe
000000b0: 147c 1fbe 543f 89bd 9982 00be cb57 37bd
000000c0: 0000 0000 0000 0000 0000 0000 0000 0000
000000d0: 0000 0000 0000 0000 0000 0000 0000 0000
000000e0: 9ec0 03b9 475a f8b9 40d6 503a b9fe a339

momentum_buffer f4 [15]
0.0 -0.00010420016 0.0 -0.16789779 0.0021958805 -0.051370684 0.06270329 -0.00012331149
-0.033194143 0.032006875 -0.100730635 -0.022543976 0.0 0.0 -0.00013629098
00000000: 0000 0000 0986 dab8 0000 0000 66ed 2bbe
00000010: c3e8 0f3b 116a 52bd 956a 803d 2d4d 01b9
00000020: 95f6 07bd a419 033d dd4b cebd 25ae b8bc
00000030: 0000 0000 0000 0000 55e9 0eb9

momentum_buffer f4 [10, 15]
0.0 0.00011651872 0.0 -0.00016844706 -3.9089124e-07 -0.0014754613 -0.002995568 7.405556e-05
-2.2491402e-06 -0.0018935222 -9.9420695e-06 -6.980329e-05 0.0 0.0 0.00013866762 0.0
-5.2506166e-05 0.0 5.875192e-13 1.116028e-17 0.00024560554 0.0006666275 -3.3370277e-05 1.2911237e-17
0.00037369813 0.0 2.9034524e-08 0.0 0.0 -6.248843e-05 0.0 6.8656027e-06
0.0 0.0 0.0 -6e-45 3.727802e-05 4.7270655e-06 0.0 2.466288e-05
0.0 0.0 0.0 0.0 8.053439e-06 0.0 0.00060245395 0.0
-0.0009381095 -2.1658936e-06 -0.00808685 -0.016354885 0.00038290213 -1.2509558e-05 -0.010366324 -5.5403336e-05
-0.0003886314 0.0 0.0 0.0007169781 0.0 0.0 0.0 0.0
0.0 0.0 0.0 0.0 0.0 0.0 0.0 0.0
0.0 0.0 0.0 0.0 0.0 0.0 -0.004392402 -1.5586505e-07
-0.002374521 -0.00022251665 0.0 -0.0008945488 -8.530655e-05 -0.0026660066 -0.000573033 0.0
0.0 0.0 0.0 -0.00096515496 0.0 0.0 5.8352632e-21 0.0025497393
0.0066187126 -0.00061343587 7.22e-43 0.003594087 0.0 1.6069593e-07 0.0 0.0
-0.0011485892 0.0 0.0 0.0 -6e-45 0.0 -6e-45 -6e-45
0.0 -6e-45 -6e-45 -6e-45 -6e-45 0.0 0.0 0.0
0.0 -0.00023759225 0.0 6e-45 1.8785846e-17 0.00067084027 0.0017492122 -0.0001510091
9.8e-44 0.00094731944 0.0 4.403291e-08 0.0 0.0 -0.00028274918 0.0
0.0 0.0 -0.45205638 -0.0028481623 -0.48538542 -0.47323447 0.0 -0.10550399
-0.25272074 -0.25934762 -0.056493428 0.0 0.0 0.0
00000000: 0000 0000 835b f438 0000 0000 2aa1 30b9
00000010: afdb d1b4 4464 c1ba 4b51 44bb 474e 9b38
00000020: efef 16b6 1030 f8ba ddcc 26b7 5b63 92b8
00000030: 0000 0000 0000 0000 4e67 1139 0000 0000
00000040: 113a 5cb8 0000 0000 385f 252b efde 4d23
00000050: 9ec4 8039 9dc0 2e3a 10f7 0bb8 982b 6e23
00000060: eaec c339 0000 0000 9867 f932 0000 0000
00000070: 0000 0000 380c 83b8 0000 0000 145f e636
00000080: 0000 0000 0000 0000 0000 0000 0400 0080
00000090: f85a 1c38 2f9d 9e36 0000 0000 22e3 ce37
000000a0: 0000 0000 0000 0000 0000 0000 0000 0000
000000b0: 421d 0737 0000 0000 00ee 1d3a 0000 0000
000000c0: 76eb 75ba c559 11b6 b57e 04bc aefa 85bc
000000d0: 41c0 c839 24e0 51b7 84d7 29bc e160 68b8
000000e0: 39c1 cbb9 0000 0000 0000 0000 96f3 3b3a
000000f0: 0000 0000 0000 0000 0000 0000 0000 0000
00000100: 0000 0000 0000 0000 0000 0000 0000 0000
00000110: 0000 0000 0000 0000 0000 0000 0000 0000
00000120: 0000 0000 0000 0000 0000 0000 0000 0000
00000130: 0000 0000 0000 0000 23ee 8fbb dc5b 27b4
00000140: da9d 1bbb 5c53 69b9 0000 0000 2780 6aba
00000150: 9be6 b2b8 2bb8 2ebb 9837 16ba 0000 0000
00000160: 0000 0000 0000 0000 0000 0000 7402 7dba
00000170: 0000 0000 0000 0000 3473 dc1d 8719 273b
00000180: c9e1 d83b fcce 20ba 0302 0000 c68a 6b3b
00000190: 0000 0000 c38b 2c34 0000 0000 0000 0000
000001a0: 428c 96ba 0000 0000 0000 0000 0000 0000
000001b0: 0400 0080 0000 0000 0400 0080 0400 0080
000001c0: 0000 0000 0400 0080 0400 0080 0400 0080
000001d0: 0400 0080 0000 0000 0000 0000 0000 0000
000001e0: 0000 0000 2f22 79b9 0000 0000 0400 0000
000001f0: d344 ad23 54db 2f3a d245 e53a 3258 1eb9
00000200: 4600 0000 8855 783a 0000 0000 b21e 3d33
00000210: 0000 0000 0000 0000 f43d 94b9 0000 0000
00000220: 0000 0000 0000 0000 ef73 e7be 3ca8 3abb
00000230: 7084 f8be ca4b f2be 0000 0000 7a12 d8bd
00000240: 9d64 81be 36c9 84be a765 67bd 0000 0000
00000250: 0000 0000 0000 0000

momentum_buffer f4 [10]
-0.00092869747 0.00018710656 3.838551e-06 -0.0050716423 0.0 -0.00068451324 0.002019004 -6e-45
0.00052629184 -0.19109152
00000000: d573 73ba 0932 4439 e7cc 8036 0530 a6bb
00000010: 0000 0000 e870 33ba 4451 043b 0400 0080
00000020: d9f6 093a 7fad 43be

momentum_buffer f4 [3, 10]
0.0002337797 2.7199825e-05 -1.08389095e-07 0.0031808584 0.0 1.201772e-13 -0.000903908 6e-45
-0.0001762708 0.0027462414 -0.0005380438 -3.6747508e-05 1.0812409e-07 -0.0060464456 0.0 0.00023203967
0.00085109175 -6e-45 0.0001531557 0.4599487 0.00030423215 9.528699e-06 1.6426035e-16 0.0028652437
0.0 -0.000232041 5.2521238e-05 6e-45 2.3032308e-05 -0.46269497
00000000: c322 7539 2e2b e437 89c3 e8b3 f375 503b
00000010: 0000 0000 b84e 072a 3df4 6cba 0400 0000
00000020: 55d5 38b9 49fa 333b 820b 0dba 5621 1ab8
00000030: d931 e833 4321 c6bb 0000 0000 ad4f 7339
00000040: cd1b 5f3a 0400 0080 6c98 2039 657e eb3e
00000050: 5981 9f39 73dd 1f37 1961 3d25 d0c6 3b3b
00000060: 0000 0000 0850 73b9 404a 5c38 0400 0000
00000070: 8135 c137 5be6 ecbe

momentum_buffer f4 [3]
0.004376497 0.22695315 -0.23132971
00000000: b868 8f3b 6866 683e b2e1 6cbe
